ckpts/latest.pth/model.pth (torch, 135150 bytes, 6 tensors)

network.0.weight f4 [120, 116]
-0.020606704 0.00171116 0.037830077 0.073429175 0.08952326 0.022394918 -0.07155094 0.02253487
0.024227723 -0.038296863 0.04625397 0.04244303 -0.012477025 -0.03781989 0.026763313 0.07540243
0.037513174 -0.05318784 -0.004821174 0.07716673 -0.0008224398 -0.08943448 -0.047483448 -0.089503124
0.068419866 -0.033149626 -0.052777596 -0.040811773 0.014671169 -0.04777731 -0.002172619 0.060249038
0.06706207 -0.06677513 -0.07088845 0.045588054 0.052215837 -0.047146693 0.01546149 0.076401405
-0.0123064965 0.03722029 -0.048927195 -0.046100885 -0.03543428 0.0051709935 0.092261605 -0.07108568
-0.032135893 0.06419798 0.016187884 -0.033498213 -0.06847382 -0.08911413 0.018047713 0.05563975
0.061601914 0.007963799 0.00012703985 -0.080755524 -0.0068222806 0.057682715 -0.0613175 0.044183962
-0.039403517 -0.021273158 -0.012989841 -0.049976304 0.03589674 0.083828904 0.052254386 -0.090858184
0.05993142 0.036122225 0.08699953 -0.00958474 0.0679461 0.015634112 0.06068621 -0.09148841
-0.06035647 0.07884101 -0.041309215 -0.03485139 -0.04861893 0.06805492 -0.043773837 -0.023366153
0.027334005 -0.050074726 0.051599078 0.09256265 0.07145927 0.06320908 0.019397989 0.04122112
-0.022935078 0.02377589 0.03692118 -0.024295263 -0.053913634 0.039214335 0.02532509 -0.07576397
-0.060042266 -0.036120847 -0.022578344 -0.020571813 -0.0450219 -0.06777072 0.056038864 0.078691505
-0.015673682 -0.037158765 -0.02223304 0.07684564 -0.021732308 -0.06578566 0.06393329 0.028447859
-0.07312734 -0.06393988 0.03951154 0.007697694 -0.05988151 0.07000736 0.05261583 -0.014425807
0.028206311 0.03151297 0.029407099 0.016270839 -0.0533368 -0.06910508 -0.009423025 0.07634444
0.07455229 0.039358072 0.025014758 0.07098033 -0.0551776 0.088551186 -0.019965984 -0.06843811
-0.061165012 -0.047798894 0.06657512 0.09013704 -0.029749036 -0.072236 -0.08062504 -0.08956723
0.054717652 0.06441272 0.07091648 0.021390393 0.07020325 -0.08147098 0.047248147 0.049908154
-0.033715494 0.067590155 0.07305748 -0.08438595 0.064628355 -0.003932245 0.061832093 0.02071672
-0.077787094 0.025409386 0.027800374 -0.082304865 0.0639896 0.013751037 -0.02925013 0.007516749
0.03760106 0.060822435 0.047153153 -0.058341984 0.08803148 0.03008125 -0.08216183 -0.074399844
0.04289045 0.006620042 -0.018740237 -0.030544471 -0.06745495 -0.056365374 -0.02829837 -0.0051169693
-0.04190024 -0.0845215 -0.07931369 0.03245107 -0.0783051 0.067505516 -0.017246343 0.029290043
0.08804103 -0.043516867 0.02645535 -0.05420503 0.092805825 -0.066210195 0.01146289 0.039361276
0.08356326 -0.086804196 0.055114098 0.09198227 -0.08586523 -0.08606998 0.048000164 0.004045695
0.0038792267 -0.0740071 -0.0919402 0.027258135 0.037646584 0.060736157 0.07969514 -0.062562816
-0.06593335 0.030566275 0.014122523 -0.0062900037 -0.011286594 0.050477766 -0.029468052 0.06519041
-0.067974895 0.077339135 -0.020392805 0.04406946 -0.012228452 -0.08819285 0.018456727 -0.0394602
0.028461717 -0.044910852 0.06407521 0.080132 -0.01487641 0.05169461 -0.036974113 0.004843302
-0.09274587 0.062642075 0.07614774 -0.056846634 0.06520031 -0.07668757 -0.02678965 0.020885125
00000000: 64cf a8bc 0049 e03a b6f3 1a3d 0962 963d
00000010: f957 b73d 8c75 b73c 4d89 92bd 0c9b b83c
00000020: 3879 c63c 2cdd 1cbd ce74 3d3d bed8 2d3d
00000030: 706c 4cbc 07e9 1abd bc3e db3c 976c 9a3d
00000040: 6aa7 193d 7edb 59bd f0fa 9dbb 9709 9e3d
00000050: 0099 57ba 6d29 b7bd 017e 42bd 6a4d b7bd
00000060: b71f 8c3d e7c7 07bd 522d 58bd 3f2a 27bd
00000070: 585f 703c 24b2 43bd 8062 0ebb b2c7 763d
00000080: d757 893d 66c1 88bd f72d 91bd 8aba 3a3d
00000090: 46e0 553d e41c 41bd 3052 7d3c 5778 9c3d
000000a0: 30a1 49bc 4e74 183d e267 48bd 48d4 3cbd
000000b0: 8923 11bd 7071 a93b a7f3 bc3d 5e95 91bd
000000c0: eda0 03bd 3b7a 833d 749c 843c 6c35 09bd
000000d0: 013c 8cbd 7881 b6bd ccd8 933c 82e6 633d
000000e0: 4a52 7c3d 987a 023c 0036 0539 2763 a5bd
000000f0: 708d dfbb b644 6c3d 0f28 7bbd 3efa 343d
00000100: 9565 21bd 0c45 aebc 58d3 54bc f4b3 4cbd
00000110: 7608 133d 7dae ab3d b208 563d db13 babd
00000120: a67a 753d e6f4 133d cf2c b23d 5009 1dbc
00000130: 5327 8b3d 1c13 803c 1a92 783d 475e bbbd
00000140: 5938 77bd 6577 a13d da33 29bd 55c0 0ebd
00000150: a524 47bd 6160 8b3d 324c 33bd 606a bfbc
00000160: 90eb df3c 281b 4dbd 8e59 533d 7d91 bd3d
00000170: 3d59 923d c373 813d 88e8 9e3c 7ad7 283d
00000180: 58e2 bbbc a8c5 c23c aa3a 173d dc06 c7bc
00000190: 8bd4 5cbd 369f 203d 9076 cf3c 242a 9bbd
000001a0: e1ee 75bd 74f3 13bd 38f6 b8bc 3886 a8bc
000001b0: e268 38bd 60cb 8abd 0289 653d 0329 a13d
000001c0: 1866 80bc ca33 18bd 1022 b6bc 3f61 9d3d
000001d0: f407 b2bc a2ba 86bd 75ef 823d 7c0b e93c
000001e0: c9c3 95bd e9f2 82bd dad6 213d f03c fc3b
000001f0: 5046 75bd 0560 8f3d b283 573d 385a 6cbc
00000200: ec10 e73c be13 013d 28e7 f03c 6c4a 853c
00000210: b077 5abd f786 8dbd 0863 1abc 795a 9c3d
00000220: dfae 983d ee35 213d c0eb cc3c 235e 913d
00000230: e801 62bd 535a b53d b48f a3bc 4829 8cbd
00000240: 2a88 7abd c6c8 43bd 8958 883d c599 b83d
00000250: 40b4 f3bc 78f0 93bd be1e a5bd 066f b7bd
00000260: 9e1f 603d d1ea 833d a93c 913d e83a af3c
00000270: b9c6 8f3d 42da a6bd 4687 413d 7e6c 4c3d
00000280: 4219 0abd b56c 8a3d 299f 953d 8ad2 acbd
00000290: df5b 843d 10da 80bb a643 7d3d 1cb6 a93c
000002a0: d74e 9fbd 5827 d03c 9cbd e33c 748f a8bd
000002b0: fb0c 833d 084c 613c f89d efbc 104f f63b
000002c0: 9203 1a3d f220 793d aa23 413d 01f8 6ebd
000002d0: d949 b43d f46c f63c 7644 a8bd f25e 98bd
000002e0: e6ad 2f3d f0ec d83b 2085 99bc 6638 fabc
000002f0: d225 8abd 61df 66bd fcd1 e7bc 40ac a7bb
00000300: 969f 2bbd 9c19 adbd 376f a2bd 6aeb 043d
00000310: 6d5e a0bd 5540 8a3d 3448 8dbc acf1 ef3c
00000320: db4e b43d be3e 32bd e4b8 d83c 1806 5ebd
00000330: fb10 be3d 3699 87bd d8ce 3b3c 4a39 213d
00000340: 3723 ab3d 66c6 b1bd 52bf 613d 3361 bc3d
00000350: 1cda afbd 7545 b0bd d29b 443d c091 843b
00000360: a03a 7e3b 0991 97bd 254b bcbd 744c df3c
00000370: 4e33 1a3d 7ac6 783d 3537 a33d ef20 80bd
00000380: 1008 87bd 2066 fa3c 2862 673c 601c cebb
00000390: 68eb 38bc c6c1 4e3d fc66 f1bc 8d82 853d
000003a0: 6c36 8bbd fb63 9e3d d00e a7bc 2e82 343d
000003b0: d859 48bc 749e b4bd 9032 973c 05a1 21bd
000003c0: 8c28 e93c 71f4 37bd dd39 833d 3f1c a43d
000003d0: 30bc 73bc babd 533d 2b72 17bd 90b4 9e3b
000003e0: 8cf1 bdbd 7d4a 803d 59f3 9b3d 04d8 68bd
000003f0: bd87 853d 5f0e 9dbd f875 dbbc 4817 ab3c

network.0.bias f4 [120]
0.08878397 0.0054891407 0.0905255 0.055760287 -0.01570332 0.08035419 0.08854366 0.06185273
-0.011816233 0.051725455 -0.06700928 0.05271747 -0.08336672 -0.018291004 0.034285896 0.025114693
0.025159694 0.061760835 0.08722503 0.04492592 0.06468917 -0.07441011 0.0128297135 0.033240132
0.017161973 0.09119209 0.023693524 -0.067315124 0.031569794 0.0625421 0.038957126 -0.07732332
-0.025460035 -0.062388014 0.031136073 0.038206585 -0.028497554 0.033241756 0.08257372 -0.05569261
-0.0053872615 0.022457488 -0.051001064 -0.06379557 0.08974939 -0.027523652 0.012947485 -0.061394867
0.05946704 -0.088615544 -0.04207109 -0.016372189 0.07448911 -0.056549307 0.060002558 -0.011256933
0.052948512 0.04978574 -0.0035994202 -0.047764726 0.034460984 0.0486603 0.09139603 0.043115087
0.0753733 0.050854184 0.09273539 -0.04903851 -0.07811114 0.04896035 -0.049625274 -0.0028312802
-0.047667645 0.055297904 -0.028547637 0.015069909 0.057398908 -0.047694586 0.06708055 -0.010328442
0.01044032 0.017644517 0.06699639 0.046587296 0.06285667 -0.071296915 0.09282511 -0.015997648
-0.05033359 -0.09058112 -0.05923875 0.018809222 -0.08365339 -0.030943714 -0.060932234 0.023284182
-0.018894136 -0.09180932 -0.02804862 -0.022623561 0.054251455 -0.05347762 0.04801313 -0.07112312
-0.00055897236 0.01234325 -0.07480025 -0.058716703 0.014588222 -0.0114025995 -0.02115494 -0.056566697
-0.028425507 0.043802135 0.015162446 -0.017275587 0.055395134 -0.066087484 -0.08018618 -0.067730576
00000000: 5fd4 b53d 40de b33b 6f65 b93d e664 643d
00000010: 40a4 80bc bd90 a43d 6156 b53d 4a59 7d3d
00000020: e098 41bc 12de 533d 293c 89bd 46ee 573d
00000030: 2cbc aabd 04d7 95bc 5e6f 0c3d 54bd cd3c
00000040: b41b ce3c eef8 7c3d 09a3 b23d 3e04 383d
00000050: c17b 843d 5464 98bd b833 523c ce26 083d
00000060: 4497 8c3c ebc2 ba3d ec18 c23c 83dc 89bd
00000070: 544f 013d 1316 803d 8291 1f3d b05b 9ebd
00000080: 9091 d0bc 938a 7fbd 1411 ff3c 827e 1c3d
00000090: b473 e9bc 8228 083d 691c a93d ef1d 64bd
000000a0: a087 b0bb c4f8 b73c 7ee6 50bd 40a7 82bd
000000b0: 87ce b73d 4879 e1bc b021 543c 2f79 7bbd
000000c0: b693 733d 117c b5bd bc52 2cbd f81e 86bc
000000d0: bf8d 983d 3fa0 67bd 3ec5 753d 006f 38bc
000000e0: 8ae0 583d 22ec 4b3d 40e4 6bbb f2a4 43bd
000000f0: f626 0d3d 0650 473d d72d bb3d 7299 303d
00000100: 515d 9a3d 7a4c 503d 0dec bd3d 9bdc 48bd
00000110: bcf8 9fbd a68a 483d df43 4bbd 008d 39bb
00000120: 263f 43bd 0e80 623d bcdc e9bc c8e7 763c
00000130: 1e1b 6b3d 665b 43bd 8761 893d a038 29bc
00000140: e00d 2b3c 3c8b 903c 6735 893d 52d2 3e3d
00000150: ffba 803d 1e04 92bd 171b be3d 800d 83bc
00000160: 982a 4ebd 9882 b9bd 55a4 72bd cc15 9a3c
00000170: 7852 abbd ac7d fdbc 1494 79bd 78be be3c
00000180: e0c7 9abc 8606 bcbd 38c6 e5bc 0c55 b9bc
00000190: c636 5e3d 590b 5bbd 6aa9 443d 00a9 91bd
000001a0: 0088 12ba 583b 4a3c e030 99bd ed80 70bd
000001b0: 7003 6f3c f8d1 3abc 204d adbc 7bb2 67bd
000001c0: 9cdc e8bc de69 333d e86b 783c 8885 8dbc
000001d0: 02e6 623d e058 87bd a738 a4bd 54b6 8abd

network.2.weight f4 [80, 120]
-0.049569976 -0.01399634 -0.06407097 -0.013920225 -0.049374323 0.025638051 -0.06512136 -0.03798246
0.050082102 0.054628313 -0.06390208 0.07155664 0.028128281 -0.04463872 -0.047745597 0.08013961
-0.083084516 0.028152995 -0.014163569 -0.030684747 -0.08243081 -0.056655128 0.012848616 0.0693465
0.079466105 -0.035654515 0.033609465 -0.08778423 -0.028022967 0.0076725036 -0.08596012 0.07041621
-0.08702835 0.083303094 0.05758384 0.05358401 -0.027800694 0.05921568 0.07399212 0.054207772
-0.07100543 0.07028556 -0.077751964 0.06273273 -0.02916396 0.0065119043 0.0829459 -0.08873469
0.025506288 -0.004342787 0.03189589 -0.029181525 0.07457879 0.029974125 0.04262945 0.055210173
-0.016231656 -0.042637188 0.014835939 -0.043995928 -0.045939773 0.029171519 0.04617235 -0.09104053
0.020054497 0.009836234 -0.084411465 0.032811068 -0.07559785 0.02290909 -0.009798713 -0.020161808
-0.06407347 0.035863712 -0.05782988 -0.077397145 -0.019805238 0.066734165 0.006204307 0.061505526
0.032053173 0.07959497 -0.059990905 0.056805983 0.05661969 0.064579085 -0.03500431 -0.023094863
-0.015506528 0.04716237 -0.022269487 -0.022367775 0.041376352 -0.08251909 0.042007133 -0.018665388
-0.04823775 0.027187705 0.07276523 -0.027464107 -0.06557883 0.06571609 -0.01697424 0.0038824677
-0.035474468 0.03803578 0.004639566 -0.00853651 -0.052136134 -0.074783914 -0.04137724 -0.08275254
0.0765204 0.08310521 0.05094658 0.02540715 0.005615853 -0.015294194 0.06475073 0.064353704
-0.013207212 0.075392246 -0.07069906 0.019849606 0.03888917 0.014445692 0.06964056 0.004253119
-0.009973004 -0.012461185 0.009983957 0.08328147 0.0048694015 -0.052003015 0.027320363 -0.03611506
0.0007776469 0.07839519 0.01567012 0.050331414 -0.040774338 -0.06541723 0.06284529 0.052630946
0.08430609 -0.09112168 0.026086487 -0.036938515 -0.022669107 -0.019385725 0.014374889 0.013952024
-0.05764142 -0.036001127 -0.019640297 -0.061455645 0.050549686 -0.016389534 -0.06393414 0.06680624
0.04347816 0.07165709 -0.06873283 -0.06261606 -0.029965375 0.065942034 0.08964446 0.019183375
-0.08446075 -0.04017588 0.005760722 -0.07143581 -0.081875324 0.055974245 0.07625294 0.07661642
-0.06770757 0.019022003 0.024454318 -0.026312873 -0.0057172105 -0.023133203 -0.049929082 -0.0032598898
0.08151455 -0.016801417 -0.015726022 -0.062629715 -0.032915384 0.05794324 0.07263762 -0.048293564
-0.02299922 -0.06556378 -0.045626886 0.0051486418 -0.076737836 -0.04161022 0.0735393 -0.07796167
0.016622745 -0.07478089 -0.075018175 -0.051870435 -0.010788038 0.04644084 -0.025808789 -0.00026643276
-0.025269382 0.05683811 -0.049156364 -0.090121195 -0.08162486 -0.0753296 -0.03925637 -0.06106038
-0.013906203 -0.03671717 0.016290486 -0.059083987 -0.0043959543 -0.0051647797 0.019793823 -0.035889942
0.0871416 -0.06864853 0.031120777 0.0016486198 0.07966687 -0.019653626 -0.005534582 0.02116514
0.007930353 -0.08172299 0.064079 -0.045104764 -0.07668094 0.03799893 0.0864823 0.028140418
0.0058744326 -0.04866675 -0.07114707 0.0112205 -0.03093123 0.059030995 0.00043831766 0.06636508
-0.03405484 -0.0549991 -0.06809826 0.06357089 -0.06920928 0.06350994 0.08601454 -0.08500815
00000000: e309 4bbd e850 65bc a437 83bd a811 64bc
00000010: bb3c 4abd e406 d23c 595e 85bd 7f93 1bbd
00000020: e422 4d3d f0c1 5f3d 18df 82bd 4a8c 923d
00000030: 486d e63c 17d7 36bd e390 43bd 3c20 a43d
00000040: 3728 aabd 1ca1 e63c 500e 68bc 945e fbbc
00000050: 7cd1 a8bd 350f 68bd 0083 523c 8a05 8e3d
00000060: 20bf a23d 780a 12bd 14aa 093d 38c8 b3bd
00000070: 6c90 e5bc a069 fb3b dc0b b0bd 6036 903d
00000080: eb3b b2bd d09a aa3d 08dd 6b3d e87a 5b3d
00000090: 48be e3bc 248c 723d 2e89 973d f808 5e3d
000000a0: 4b6b 91bd e0f1 8f3d 6c3c 9fbd 047a 803d
000000b0: 42e9 eebc d061 d53b 8adf a93d 88ba b5bd
000000c0: 90f2 d03c f04d 8ebb 44a5 023d 180e efbc
000000d0: c4bc 983d 4c8c f53c 389c 2e3d 1024 623d
000000e0: 40f8 84bc 55a4 2ebd 7012 733c 1335 34bd
000000f0: 582b 3cbd 1cf9 ee3c 381f 3d3d 7573 babd
00000100: 5449 a43c 2828 213c ebdf acbd e664 063d
00000110: 0cd3 9abd d8ab bb3c c88a 20bc 602a a5bc
00000120: f438 83bd d4e5 123d 06df 6cbd 6582 9ebd
00000130: 983e a2bc ecab 883d 804d cb3b 38ed 7b3d
00000140: 304a 033d b002 a33d 06b9 75bd 64ad 683d
00000150: 0cea 673d 0a42 843d ae60 0fbd 7031 bdbc
00000160: 180f 7ebc 542d 413d 806e b6bc a03c b7bc
00000170: 407a 293d c5ff a8bd ac0f 2c3d 28e8 98bc
00000180: f294 45bd c0b8 de3c f005 953d 68fc e0bc
00000190: 324e 86bd 2896 863d 900d 8bbc 0071 7e3b
000001a0: ad4d 11bd 68cb 1b3d 8007 983b b8dc 0bbc
000001b0: b38c 55bd 4f28 99bd 2e7b 29bd 2a7a a9bd
000001c0: bab6 9c3d 1033 aa3d 5cad 503d a822 d03c
000001d0: 3005 b83b 8094 7abc 089c 843d e0cb 833d
000001e0: 1063 58bc 4067 9a3d abca 90bd a49b a23c
000001f0: 404a 1f3d a0ad 6c3c b69f 8e3d c05d 8b3b
00000200: d065 23bc 002a 4cbc c093 233c 7a8f aa3d
00000210: 808f 9f3b 1d01 55bd f4ce df3c 63ed 13bd
00000220: 00db 4b3a a88d a03d a05e 803c 5028 4e3d
00000230: fe02 27bd 78f9 85bd 08b5 803d 8c93 573d
00000240: aca8 ac3d 019e babd 54b3 d53c d74c 17bd
00000250: 90b4 b9bc d0ce 9ebc a884 6b3c 0897 643c
00000260: 6919 6cbd eb75 13bd b0e4 a0bc eab8 7bbd
00000270: 300d 4f3d 5843 86bc e7ef 82bd b6d1 883d
00000280: 2816 323d f4c0 923d ccc3 8cbd d93c 80bd
00000290: f279 f5bc 9e0c 873d 8497 b73d 7426 9d3c
000002a0: c2f9 acbd 778f 24bd 70c4 bc3b f04c 92bd
000002b0: 40ae a7bd 4045 653d 802a 9c3d 12e9 9c3d
000002c0: 44aa 8abd 08d4 9b3c 6c54 c83c 188e d7bc
000002d0: 7057 bbbb d881 bdbc 7082 4cbd e0a3 55bb
000002e0: 1af1 a63d 20a3 89bc dcd3 80bc 0244 80bd
000002f0: 48d2 06bd e455 6d3d 08c3 943d 79cf 45bd
00000300: dc68 bcbc 4e46 86bd 42e3 3abd f0b5 a83b
00000310: ba28 9dbd 7a6f 2abd c69b 963d 5eaa 9fbd
00000320: 6c2c 883c b926 99bd 21a3 99bd 1876 54bd
00000330: 50c0 30bc c038 3e3d f46c d3bc 00b0 8bb9
00000340: bc01 cfbc 14cf 683d 2f58 49bd 7691 b8bd
00000350: ef2a a7bd 6846 9abd 4acb 20bd 731a 7abd
00000360: d8d6 63bc be64 16bd a073 853c 0d02 72bd
00000370: f00b 90bb 503d a9bb a826 a23c 5501 13bd
00000380: 4c77 b23d 9a97 8cbd 00f1 fe3c 8016 d83a
00000390: 6228 a33d a400 a1bc 705b b5bb 8462 ad3c
000003a0: 50ee 013c 625e a7bd da3b 833d c6bf 38bd
000003b0: e60a 9dbd c4a4 1b3d a21d b13d bc86 e63c
000003c0: 507e c03b c956 47bd 8eb5 91bd 30d6 373c
000003d0: 7e63 fdbc 7cca 713d 00ce e539 6aea 873d
000003e0: 177d 0bbd bc46 61bd 1a77 8bbd 7431 823d
000003f0: 98bd 8dbd 8011 823d 6428 b03d c118 aebd

network.2.bias f4 [80]
0.03584127 -0.024804443 0.028208159 0.08306116 0.04847382 -0.010188907 -0.01477246 0.031330183
-0.06910063 -0.011661842 -0.024857707 -0.0143776685 0.050772563 -0.06585232 -0.027445912 0.026312545
0.06965768 0.06281778 -0.006669 0.015788428 0.08120687 -0.0016258135 -0.023462921 0.0028570443
0.07499148 0.010995485 -0.0038806573 0.046545252 0.03538996 -0.09012247 -0.08884054 -0.021891162
-0.009529538 -0.087505676 0.040106192 -0.031295057 0.08573347 0.045372486 -0.027106404 -0.08035293
0.0749014 0.0007311255 -0.045803353 -0.012181953 0.047761038 -0.012633204 -0.033526823 -0.005578056
0.035506904 -0.007854179 -0.06535345 -0.0073200315 -0.032960184 -0.029023208 0.07227671 -0.08829705
0.08173166 0.026135601 0.0045832843 0.03434868 -0.07600589 -0.08196086 0.02015344 0.05224724
-0.08091266 0.0018890724 -0.009426668 0.063569814 0.059945136 0.067075446 -0.031280026 -0.07063279
0.014878847 0.029387549 0.0062077343 0.08316217 0.09055062 -0.032725684 -0.0035284013 0.079267085
00000000: 4cce 123d b032 cbbc cc14 e73c f81b aa3d
00000010: 7c8c 463d 60ef 26bc 3008 72bc 1454 003d
00000020: a284 8dbd 5011 3fbc 64a2 cbbc 5090 6bbc
00000030: e4f6 4f3d 95dd 86bd 40d6 e0bc 688d d73c
00000040: b0a8 8e3d 9ca6 803d a087 dabb bc56 813c
00000050: ca4f a63d 4019 d5ba 5035 c0bc 403d 3b3b
00000060: 2295 993d 6826 343c a052 7ebb 3ca6 3e3d
00000070: 10f5 103d 2192 b8bd 07f2 b5bd 1855 b3bc
00000080: c821 1cbc 2d36 b3bd 6446 243d 3f2f 00bd
00000090: 0895 af3d 80d8 393d 400e debc 1490 a4bd
000000a0: e865 993d 00a9 3f3a 4c9c 3bbd d096 47bc
000000b0: 14a1 433d 80fb 4ebc 6c53 09bd 20c8 b6bb
000000c0: b06f 113d d0ae 00bc 08d8 85bd e0dc efbb
000000d0: 4201 07bd 14c2 edbc d005 943d 15d5 b4bd
000000e0: ee62 a73d 541a d63c 602f 963b 34b1 0c3d
000000f0: faa8 9bbd 18db a7bd d418 a53c 3401 563d
00000100: 89b5 a5bd c09a f73a 5072 1abc e430 823d
00000110: 0889 753d da5e 893d 7c1f 00bd eda7 90bd
00000120: 68c6 733c 28be f03c 406a cb3b ee50 aa3d
00000130: 9a72 b93d 5e0b 06bd c03c 67bb c856 a23d

network.4.weight f4 [116, 80]
0.027062878 -0.049467485 0.101561755 -0.015444621 0.0037065744 -0.04312571 0.051477477 -0.06815004
-0.095660985 0.036584556 -0.08046346 0.038484365 -0.056949668 0.08476554 -0.099435754 0.04713133
0.08020258 -0.03816385 0.03808473 0.07119575 0.042947605 -0.03098797 0.09420724 -0.09201418
0.0069917217 -0.06827715 -0.0041473433 0.093184486 0.008189179 -0.0020838901 -0.027607776 -0.08133726
0.052181587 -0.09937866 -0.006080888 0.0055338964 -0.07297884 -0.04984721 0.016735584 -0.09118696
-0.06838986 -0.1061663 -0.07552509 0.06856026 -0.06082661 0.068268284 -0.0033878684 -0.02692739
0.030904755 -0.030014142 0.079233155 0.0626366 -0.05118392 -0.08800887 0.07405178 -0.039706603
0.10129845 0.053547665 -0.037816174 0.035950273 -0.08018404 -0.061488584 0.017803356 -0.08763775
-0.027402028 0.07011804 -0.05816042 0.02534534 0.006685205 -0.023949526 -0.020971373 0.08793105
0.08192575 0.10334979 0.060247436 -0.0004927367 0.035813645 0.06945053 0.05497043 0.026127964
-0.05147051 -0.073768795 0.008285783 -0.029804975 -0.0121502355 -0.10413385 -0.017933466 -0.023831323
-0.056106698 0.055660337 -0.07143005 -0.056493957 0.006280206 -0.001164332 -0.07113168 0.022822574
0.025686175 -0.07281103 0.06937693 0.10470794 0.019929752 0.03668563 0.024476454 -0.036122143
-0.105654255 -0.014484435 0.076818556 -0.0585512 0.10195351 -0.02083002 -0.07791263 -0.0014021024
-0.06807779 -0.029001601 -0.014596365 -0.0032928437 0.09560931 -0.08979678 -0.047692224 -0.015720554
-0.042209014 -0.08061847 -0.09046129 -0.047752768 -0.012451462 -0.09207514 0.09497854 0.050951555
-0.0533993 0.10993871 -0.035579585 0.049473673 0.03358221 -0.045365296 -0.026041254 0.059301004
0.06899592 -0.026327245 -0.04235719 0.035131097 -0.022393137 0.008833669 0.061899483 0.09321563
-0.09384338 -0.0693028 0.019441932 0.09626192 -0.08519986 0.07298538 -0.008155286 0.019545257
0.086823866 -0.0026140586 -0.05395089 -0.06336921 0.03335908 0.0014619082 0.055452496 -0.040896356
-0.037578277 0.054529935 0.095532075 0.10001114 0.0101806745 -0.021718517 -0.08754214 -0.090912834
0.0942086 0.021267027 0.0037388802 0.054965958 -0.026104935 0.03982234 -0.036750346 -0.10362969
0.08969504 0.013411537 0.073599994 0.043875113 -0.10805487 0.015724912 0.044461295 0.046398014
0.021049336 -0.063482255 0.059222564 -0.08081624 0.06967352 -0.04858733 -0.00522919 -0.046430275
0.09961034 0.05679959 0.058400482 -0.09611143 -0.018934026 0.065666795 -0.072056144 0.030892327
0.08065151 0.04487352 -0.0110408515 0.101972565 -0.03129542 -0.01657293 -0.051662914 -0.010988675
-0.06548365 0.06862101 -0.0050036907 0.110017 0.08953285 0.07348421 -0.031089805 -0.04833822
0.1103833 0.0528308 -0.05920642 -0.11100309 0.01538153 0.108081326 -0.09056464 0.06401841
-0.033895552 -0.026320875 0.04207708 0.043255255 -0.094476275 -0.05324632 -0.054717224 -0.10225487
-0.016304523 -0.043704137 -0.089707725 0.010556869 0.038272426 -0.08174021 -0.101715125 0.019616663
0.015240997 -0.102430776 0.060107157 0.0044470057 0.020241082 -0.0026259124 -0.071369976 0.089992225
-0.063292846 0.05806735 -0.03666704 0.098207146 -0.05939233 0.041243047 0.10070467 -0.08402989
00000000: f8b2 dd3c 6b9e 4abd 9cff cf3d 700b 7dbc
00000010: 00ea 723b 96a4 30bd 0cda 523d 4092 8bbd
00000020: e8e9 c3bd b0d9 153d 07ca a4bd c8a1 1d3d
00000030: 0e44 69bd 8e99 ad3d f9a4 cbbd c80c 413d
00000040: 4041 a43d b251 1cbd bcfe 1b3d 14cf 913d
00000050: d4e9 2f3d 7cda fdbc baef c03d ee71 bcbd
00000060: d01a e53b e4d4 8bbd 70e6 87bb 82d7 be3d
00000070: e82b 063c e091 08bb b429 e2bc 2694 a6bd
00000080: 5cbc 553d 0a87 cbbd 3042 c7bb b055 b53b
00000090: ee75 95bd 972c 4cbd 1019 893c 3bc0 babd
000000a0: fc0f 8cbd b86d d9bd e6ac 9abd 5269 8c3d
000000b0: 5325 79bd 3ed0 8b3d 0007 5ebb d496 dcbc
000000c0: f82b fd3c 38e0 f5bc fe44 a23d 9e47 803d
000000d0: 3ba6 51bd ff3d b4bd 76a8 973d 64a3 22bd
000000e0: 9075 cf3d cc54 5b3d 22e5 1abd 9840 133d
000000f0: 8837 a4bd 74db 7bbd 58d8 913c 6c7b b3bd
00000100: 387a e0bc 0c9a 8f3d 9f39 6ebd 08a1 cf3c
00000110: 900f db3b cc31 c4bc 28cc abbc 3215 b43d
00000120: b0c8 a73d 0ea9 d33d 04c6 763d 002b 01ba
00000130: 54b1 123d 143c 8e3d ac28 613d 500a d63c
00000140: bed2 52bd 1814 97bd 18c1 073c 9029 f4bc
00000150: c811 47bc 2144 d5bd 34e9 92bc e839 c3bc
00000160: 23d0 65bd 18fc 633d eb49 92bd 3566 67bd
00000170: 30ca cd3b 809c 98ba 7cad 91bd 68f6 ba3c
00000180: d06b d23c f31d 95bd 7e15 8e3d 1e71 d63d
00000190: b843 a33c ac43 163d d882 c83c d0f4 13bd
000001a0: 4261 d8bd 2050 6dbc 0c53 9d3d 62d3 6fbd
000001b0: 00cd d03d b8a3 aabc a890 9fbd c0c6 b7ba
000001c0: 5e6c 8bbd c494 edbc 9825 6fbc c0cc 57bb
000001d0: d0ce c33d 60e7 b7bd ec58 43bd 64c8 80bc
000001e0: 5ce3 2cbd 4c1b a5bd c543 b9bd 6898 43bd
000001f0: 3801 4cbc e491 bcbd 1c84 c23d 94b2 503d
00000200: 39b9 5abd 8c27 e13d e6bb 11bd e8a4 4a3d
00000210: 808d 093d f6d0 39bd 7854 d5bc 9ce5 723d
00000220: bc4d 8d3d 3cac d7bc bc7e 2dbd a0e5 0f3d
00000230: d071 b7bc 18bb 103c 508a 7d3d d6e7 be3d
00000240: f530 c0bd a0ee 8dbd b044 9f3c f824 c53d
00000250: 447d aebd 5c79 953d c09d 05bc 601d a03c
00000260: b6d0 b13d a050 2bbb 9cfb 5cbd b7c7 81bd
00000270: 88a3 083d 809d bf3a 2822 633d f082 27bd
00000280: aeeb 19bd c85a 5f3d 52a6 c33d a4d2 cc3d
00000290: d8cc 263c 08eb b1bc 4b49 b3bd 8230 babd
000002a0: 70f0 c03d 3038 ae3c 0008 753b fc23 613d
000002b0: 04da d5bc c01c 233d 8887 16bd ce3b d4bd
000002c0: 08b2 b73d 10bc 5b3c 98bb 963d 64b6 333d
000002d0: df4b ddbd 88d1 803c 0c1d 363d d80b 3e3d
000002e0: a86f ac3c fc02 82bd 5c93 723d fc82 a5bd
000002f0: feb0 8e3d 8203 47bd a059 abbb ac2d 3ebd
00000300: 8200 cc3d b0a6 683d 5835 6f3d 12d6 c4bd
00000310: 881b 9bbc 507c 863d 2c92 93bd e811 fd3c
00000320: 9e2c a53d 4ccd 373d b0e4 34bc fed6 d03d
00000330: a02f 00bd f4c3 87bc 7e9c 53bd d809 34bc
00000340: 4b1c 86bd 2c89 8c3d 00f6 a3bb 9850 e13d
00000350: 005d b73d e47e 963d 0cb0 febc 4cfe 45bd
00000360: a410 e23d 1c65 583d 6e82 72bd 9755 e3bd
00000370: d002 7c3c be59 dd3d f479 b9bd 161c 833d
00000380: 10d6 0abd e09e d7bc 0459 2c3d 6c2c 313d
00000390: c77c c1bd d018 5abd 2b1f 60bd 006b d1bd
000003a0: 1091 85bc 1c03 33bd afb8 b7bd b8f6 2c3c
000003b0: 8cc3 1c3d 6967 a7bd 0550 d0bd 20b3 a03c
000003c0: 60b5 793c 3ac7 d1bd ec32 763d 30b8 913b
000003d0: a0d0 a53c 8017 2cbb 6c2a 92bd d84d b83d
000003e0: ae9f 81bd 08d8 6d3d 2e30 16bd d420 c93d
000003f0: 5f45 73bd 78ee 283d 403e ce3d dd17 acbd

network.4.bias f4 [116]
-0.009629577 -0.032563128 -0.008725859 -0.0804268 -0.047365285 -0.051391464 -0.017250009 0.051014915
0.04312399 0.018554688 0.016794875 0.029695004 -0.05616442 0.0016134381 -0.031085558 0.09309605
0.054382488 0.011490539 0.017416656 0.012629814 -0.002067998 0.093050554 -0.015985005 -0.03245622
0.05002886 0.07134469 0.08391754 0.031856894 -0.07738383 0.05625564 -0.0040906146 -0.09854822
-0.101830974 -0.05221051 -0.04350231 0.090991974 -0.07940674 -0.049152225 0.06828892 -0.092318736
0.019146517 0.057124555 0.064947516 -0.06897418 0.06553988 -0.10941174 -0.009135947 0.08547628
-0.09733161 0.023283944 -0.03781165 -0.09226325 0.022434562 -0.08799416 0.033373296 -0.108022965
0.087460265 0.01932019 0.05393821 0.03330794 0.00073909014 -0.054013934 -0.10414859 -0.10179516
0.07703392 0.056019336 -0.066721424 0.10483593 0.04896158 -0.05149382 0.02137293 0.1042375
-0.034642413 -0.10688684 -0.095005006 0.020253137 0.0016758069 -0.03839983 -0.07330336 0.09756148
-0.10531976 0.10247806 0.0100045055 0.06297737 -0.09486558 -0.041357115 0.04616475 -0.04030011
0.071753666 0.026935592 0.08028749 -0.014899299 -0.06448814 -0.020096682 -0.09115756 -0.029601082
0.0793322 0.0019782782 0.05179353 0.047524557 0.10918094 0.03176956 -0.094471365 -0.002067253
-0.11031527 -0.04236175 -0.0882409 0.043985218 -0.052419346 -0.0048668683 0.03625822 -0.018676676
-0.02345185 0.084487066 0.09779407 -0.060985174
00000000: 60c5 1dbc ea60 05bd e8f6 0ebc ceb6 a4bd
00000010: 1a02 42bd db7f 52bd e44f 8dbc 04f5 503d
00000020: c8a2 303d 0000 983c 6895 893c f042 f33c
00000030: aa0c 66bd 007a d33a 24a7 febc 24a9 be3d
00000040: 2cc0 5e3d d042 3c3c 60ad 8e3c 48ed 4e3c
00000050: 4087 07bb 4a91 be3d fcf2 82bc d0f0 04bd
00000060: 10eb 4c3d 2a1d 923d f6dc ab3d 607c 023d
00000070: 6a7b 9ebd 506c 663d 900a 86bb a6d3 c9bd
00000080: c28c d0bd b0da 55bd 7a2f 32bd 005a ba3d
00000090: 00a0 a2bd d853 49bd 10db 8b3d 9b11 bdbd
000000a0: 28d9 9c3c 70fb 693d 3403 853d 5642 8dbd
000000b0: c639 863d 4313 e0bd f0ae 15bc 300e af3d
000000c0: cc55 c7bd f8bd be3c 64e0 1abd 84f4 bcbd
000000d0: b0c8 b73c 4836 b4bd 70b2 083d 253b ddbd
000000e0: 5e1e b33d 6045 9e3c 50ee 5c3d e86d 083d
000000f0: 80bf 413a b73d 5dbd db4b d5bd fb79 d0bd
00000100: f6c3 9d3d 8874 653d 3ea5 88bd 38b4 d63d
00000110: f08b 483d 2feb 52bd 4816 af3c 787a d53d
00000120: 34e5 0dbd 7de7 dabd fc91 c2bd e8e9 a53c
00000130: c0a6 db3a 2449 1dbd 1220 96bd 50ce c73d
00000140: e3b1 d7bd 04e0 d13d f0e9 233c 48fa 803d
00000150: e348 c2bd 1466 29bd 4017 3d3d ba11 25bd
00000160: 96f3 923d 08a8 dc3c c46d a43d 301c 74bc
00000170: 5c12 84bd cca1 a4bc d1b0 babd f87d f2bc
00000180: ec78 a23d 00a6 013b 7425 543d 1ca9 423d
00000190: 429a df3d cc20 023d 347a c1bd c07a 07bb
000001a0: f9ec e1bd 8483 2dbd a5b7 b4bd d829 343d
000001b0: abb5 56bd 407a 9fbb 8083 143d d4ff 98bc
000001c0: 181e c0bc 8e07 ad3d 4248 c83d 97cb 79bd
